trained_networks/FeedForward_Vanilla.pt (torch, 6767 bytes, 9 tensors)

weight f4 [8, 2]
0	0xc29d2e67	-78.59063
1	0xc18abab0	-17.341156
2	0x41daccd1	27.350008
3	0x40d36dc1	6.6071477
4	0xc1fb1469	-31.384966
5	0x41891c88	17.138931
6	0xbee53848	-0.44769502
7	0xc1def0b3	-27.867529
8	0x41899981	17.199953
9	0xc282e309	-65.44343
10	0xc0d32c97	-6.599193
11	0xc197386d	-18.902552
12	0x40679c44	3.6189127
13	0x423a0d45	46.51296
14	0x423fb68b	47.928265
15	0xc0ce9849	-6.4560895

bias f4 [8]
0	0x41ba4024	23.281319
1	0xc1c26a5a	-24.30193
2	0x3eff79fd	0.49897757
3	0x415006f4	13.001698
4	0x407c4d73	3.9422271
5	0x4181b95c	16.215508
6	0xbfe3ba79	-1.7791282
7	0xc19bf073	-19.492407

weight f4 [1, 8]
0	0xc23d5e80	-47.342285
1	0x4293d68f	73.91906
2	0xc114edff	-9.3081045
3	0x41ac3b47	21.528944
4	0x422c4cfa	43.075172
5	0x41457afc	12.3425255
6	0xc08fe84d	-4.497107
7	0xc1d7dfc7	-26.984266

exp_avg f4 [8, 2]
0	0xb60f00bd	-2.130909e-06
1	0xb7681ab4	-1.3834495e-05
2	0xb778f220	-1.4838326e-05
3	0xb83fce2e	-4.572997e-05
4	0xb98ef3fd	-0.00027266136
5	0xba14bdee	-0.00056740537
6	0x38b08144	8.4164116e-05
7	0x39845d17	0.0002524636
8	0xb89d7105	-7.507395e-05
9	0xb7e6cad6	-2.751259e-05
10	0x38d0c4cc	9.954869e-05
11	0x39a700de	0.00031853368
12	0x30671332	8.406459e-10
13	0x2fecfef6	4.310931e-10
14	0xb91aa7b9	-0.00014749066
15	0xb90caad2	-0.00013415076

exp_avg_sq f4 [8, 2]
0	0x339a7e09	7.1941095e-08
1	0x34ff4397	4.754663e-07
2	0x3804e4b6	3.1684256e-05
3	0x3770b1d8	1.4346522e-05
4	0x3752294f	1.2526593e-05
5	0x381a4f1d	3.679014e-05
6	0x3840504c	4.585115e-05
7	0x3803d319	3.1429434e-05
8	0x352a8eea	6.35379e-07
9	0x342656cf	1.5491536e-07
10	0x37965aaf	1.7923621e-05
11	0x383c1486	4.4841807e-05
12	0x25bff5fb	3.32999e-16
13	0x24c09feb	8.353764e-17
14	0x380d2efc	3.3660777e-05
15	0x382667e8	3.9674254e-05

exp_avg f4 [8]
0	0xb7be8bb0	-2.2714812e-05
1	0x37af8da0	2.0927575e-05
2	0xba719733	-0.0009215951
3	0x39bd51da	0.00036109873
4	0xb8fc2285	-0.00012022726
5	0x39f0fcc4	0.00045964692
6	0x30f3ec3e	1.7747721e-09
7	0xb98130e0	-0.00024641212

exp_avg_sq f4 [8]
0	0x35cd352b	1.5289164e-06
1	0x38853fed	6.353841e-05
2	0x38c0f9f5	9.2018316e-05
3	0x392fbc47	0.0001675944
4	0x3607f812	2.0260964e-06
5	0x38d9cbe9	0.000103853476
6	0x269dd9d3	1.0953105e-15
7	0x391dd09a	0.00015050397

exp_avg f4 [1, 8]
0	0xb4810974	-2.4035e-07
1	0xb5e34bea	-1.6934912e-06
2	0x3a273215	0.0006378007
3	0xb96d6ad4	-0.00022641878
4	0xb65236ca	-3.132433e-06
5	0x39f77e63	0.00047205677
6	0x3a0c62f8	0.00053553237
7	0xb94f54de	-0.00019772674

exp_avg_sq f4 [1, 8]
0	0x3081b15c	9.436394e-10
1	0x32a37812	1.90303e-08
2	0x373da1f7	1.1302988e-05
3	0x3809f553	3.289182e-05
4	0x309e8a85	1.1535383e-09
5	0x388e2478	6.7778805e-05
6	0x38a76811	7.9825644e-05
7	0x381da592	3.7585916e-05
