trained_networks/FeedForward_1689189403889284.pt (torch, 6767 bytes, 9 tensors)

weight f4 [8, 2]
0	0x42142770	37.038513
1	0x40a2fa92	5.093087
2	0x414b14e0	12.692596
3	0x4023b456	2.5578818
4	0xc114e36a	-9.305521
5	0x3f81453e	1.0099256
6	0xc1c705ef	-24.877897
7	0x411c8eac	9.784832
8	0x4132b025	11.168004
9	0x40387207	2.8819597
10	0xc0f9fa04	-7.8117695
11	0xc0758d17	-3.8367364
12	0x4184c606	16.596691
13	0xc09064da	-4.512311
14	0x401dca8a	2.465487
15	0xc060d1a7	-3.5127962

bias f4 [8]
0	0xc11433f2	-9.262682
1	0xc103f47c	-8.247189
2	0x4054e5c7	3.3265245
3	0x4014be4c	2.3241148
4	0xc0bf741b	-5.982923
5	0x40872560	4.2233124
6	0xc1109ca6	-9.038244
7	0x3e0e7a75	0.13913901

weight f4 [1, 8]
0	0x412f3450	10.950272
1	0xc185a725	-16.706614
2	0x4111e99b	9.119533
3	0xc1b71ea4	-22.889961
4	0xc1646ce3	-14.276584
5	0x40dec10d	6.961066
6	0x41f6f6e3	30.87055
7	0xc08c4182	-4.3829966

exp_avg f4 [8, 2]
0	0xb8233a38	-3.891645e-05
1	0xb7bb9280	-2.2360357e-05
2	0xb9bb9386	-0.00035777333
3	0xb9ad1372	-0.0003301162
4	0x38bee528	9.10259e-05
5	0x37a43440	1.9574654e-05
6	0xb61e2000	-2.3562461e-06
7	0xb9ef2b0c	-0.00045617705
8	0x392ff7d8	0.0001678163
9	0xb8d05ab8	-9.9351106e-05
10	0x384e56e5	4.9195154e-05
11	0x398163c5	0.00024679131
12	0x3afb5c64	0.0019177315
13	0x3ac89d9e	0.0015305763
14	0xb991eeb6	-0.0002783441
15	0xb9746ed8	-0.00023310946

exp_avg_sq f4 [8, 2]
0	0x34ba2ffe	3.468012e-07
1	0x36325750	2.657489e-06
2	0x396670d6	0.00021976544
3	0x3915b9a9	0.00014278911
4	0x3834010a	4.2916312e-05
5	0x38855c37	6.3591106e-05
6	0x3886cfb2	6.428304e-05
7	0x394e2c5d	0.00019662218
8	0x390190c0	0.00012356322
9	0x3927aff9	0.00015991916
10	0x37aee569	2.0849244e-05
11	0x37f8ebdc	2.9673734e-05
12	0x3a0933b1	0.0005233838
13	0x39416358	0.00018442923
14	0x37a29af4	1.938406e-05
15	0x377a3832	1.4914245e-05

exp_avg f4 [8]
0	0xb7a3ccbc	-1.9526451e-05
1	0xb8435100	-4.656706e-05
2	0x38c9fd10	9.6315634e-05
3	0xba5cd898	-0.0008424609
4	0x3881c4e0	6.18787e-05
5	0x3951e160	0.00020015752
6	0x3b202078	0.0024433415
7	0xb9f6f012	-0.00047099643

exp_avg_sq f4 [8]
0	0x36f07bb3	7.166958e-06
1	0x3a44f2b0	0.000751297
2	0x395d2620	0.00021090405
3	0x3a056bde	0.0005089621
4	0x3a182678	0.0005804072
5	0x38e50541	0.000109205495
6	0x3ab55a76	0.0013836164
7	0x38926284	6.9801725e-05

exp_avg f4 [1, 8]
0	0x39b360bd	0.00034213616
1	0x39c30db6	0.00037203514
2	0x38e59f8e	0.0001094929
3	0x39616922	0.00021496837
4	0x39a40b68	0.00031289016
5	0x3817f8fd	3.6233094e-05
6	0x392bfbac	0.00016401586
7	0x39335e37	0.00017105868

exp_avg_sq f4 [1, 8]
0	0x38a83fe4	8.022765e-05
1	0x3766689d	1.37334255e-05
2	0x37887126	1.6265152e-05
3	0x370f97e7	8.558832e-06
4	0x3819d5c2	3.667712e-05
5	0x36b8e6fb	5.510517e-06
6	0x36b4a62c	5.383763e-06
7	0x37850505	1.5857173e-05
