trained_networks/FeedForward_Vanilla001.pt (torch, 6767 bytes, 9 tensors)

weight f4 [8, 2]
0	0xc12caf37	-10.792777
1	0x3efde2dd	0.49587145
2	0x4184eff0	16.617157
3	0xc095c4c7	-4.6802707
4	0x41e2d06b	28.351767
5	0x410ccd32	8.8000965
6	0xc14ea364	-12.91489
7	0xc070ac83	-3.7605293
8	0xc1955de8	-18.670853
9	0x40d67c1a	6.702649
10	0x41377400	11.46582
11	0x3e31eb5c	0.17374939
12	0xc1a3a9f4	-20.457985
13	0x40ea3043	7.3183913
14	0xc0367c4c	-2.8513365
15	0x4150fd5f	13.061858

bias f4 [8]
0	0x40846186	4.1369047
1	0xc110edb1	-9.05803
2	0xc11203bb	-9.125911
3	0x41096b2e	8.588667
4	0x3ffb5e29	1.963811
5	0xc091b5a6	-4.553424
6	0x40192c5c	2.3933325
7	0x400d0edc	2.204032

weight f4 [1, 8]
0	0x412e3a7a	10.8892765
1	0x41da36bf	27.276731
2	0x40ad7f92	5.4218225
3	0x418fe1b1	17.9852
4	0xc14acaa8	-12.674477
5	0xc15ecc05	-13.924809
6	0xc16aadca	-14.667429
7	0xc0d06d74	-6.513361

exp_avg f4 [8, 2]
0	0x3a8a86cb	0.0010568736
1	0x3a9ea194	0.0012102597
2	0xb987ac48	-0.00025877566
3	0xb7ff6900	-3.0447263e-05
4	0xb81be61a	-3.716918e-05
5	0xb685ecd0	-3.9912775e-06
6	0x3ad177eb	0.0015981173
7	0x3b1155fa	0.002217649
8	0xb96e210a	-0.00022709757
9	0xba0781d9	-0.000516919
10	0xbaa3e054	-0.0012502768
11	0xbaca8952	-0.0015452302
12	0xb9843a71	-0.00025220544
13	0xba26c5e2	-0.00063618843
14	0xb6d5c6a0	-6.3710177e-06
15	0xb65a14f8	-3.2496737e-06

exp_avg_sq f4 [8, 2]
0	0x385bc837	5.2400133e-05
1	0x38b64fe9	8.693321e-05
2	0x39ce054e	0.00039295334
3	0x39137607	0.00014062981
4	0x33900874	6.70706e-08
5	0x34e01677	4.1739597e-07
6	0x398b7f48	0.00026606978
7	0x3965e7fd	0.00021925564
8	0x37c529ec	2.3503751e-05
9	0x389aaca5	7.37545e-05
10	0x38a27eb5	7.748363e-05
11	0x39115539	0.00013860026
12	0x3805f9f8	3.1942473e-05
13	0x38cca085	9.757377e-05
14	0x3310fdd3	3.3758464e-08
15	0x321fcafe	9.301173e-09

exp_avg f4 [8]
0	0x3b09da8c	0.0021034805
1	0xb92a2f20	-0.00016230019
2	0x38603e68	5.3463882e-05
3	0x3b6a8baa	0.0035788813
4	0xb9e62ea9	-0.00043903783
5	0xbb26f0bb	-0.0025473076
6	0xba1a623c	-0.0005889272
7	0xb7552ca4	-1.2706183e-05

exp_avg_sq f4 [8]
0	0x398d1adb	0.00026913625
1	0x3a863a34	0.0010240735
2	0x35ad6c9e	1.2921116e-06
3	0x3a80c5e7	0.0009824604
4	0x394aabee	0.0001932827
5	0x39dacec0	0.0004173424
6	0x39846d2d	0.00025258344
7	0x33d64f15	9.9795365e-08

exp_avg f4 [1, 8]
0	0x398f19f0	0.0002729441
1	0xb89c8c88	-7.464836e-05
2	0x3a21e528	0.00061758095
3	0x3a04c1d1	0.0005064281
4	0x390996ce	0.00013121517
5	0x3a26bec1	0.0006360822
6	0x3914d31a	0.00014193021
7	0x3a5e4f4b	0.00084804435

exp_avg_sq f4 [1, 8]
0	0x378a040f	1.6452772e-05
1	0x36a26482	4.839677e-06
2	0x38a2c1db	7.76087e-05
3	0x38089bc9	3.2570013e-05
4	0x370fce6d	8.571526e-06
5	0x382a4ba3	4.06016e-05
6	0x3723f0e9	9.771648e-06
7	0x38a4b011	7.852924e-05
